python_files/objDetandGesRec/model/point_history_classifier/point_history_classifier_edgetpu.tflite (tflite, 5696 bytes, 6 tensors)

sequential/dense/BiasAdd/ReadVariableOp/resource f4 [24]
00000000: b2c0 f3bc 1cf5 a7bd d805 15be 86db 08be
00000010: 654a 8fbc f615 75bd d6e0 81bd 5aac 913b
00000020: 6321 13be 32df 6ebd f591 d0bc 5941 62bd
00000030: aa05 0fbd 3959 64bd 1249 abbd 2ba6 17be
00000040: 64a8 10bd 2ccf 29be f9cc 3dbd 5c61 1fbe
00000050: 7296 53bd ae18 9fbc 4946 c2bd c47a 95bc
-0.02975497 -0.08201048 -0.1455301 -0.13364992 -0.017491529 -0.059835397 -0.06341712 0.0044455947
-0.14368205 -0.058318324 -0.025460223 -0.0552381 -0.03491751 -0.05574915 -0.083635464 -0.14809482
-0.03531684 -0.16582936 -0.046338055 -0.15564483 -0.051657148 -0.019420948 -0.09486062 -0.018247016

sequential/dense_1/BiasAdd/ReadVariableOp/resource f4 [10]
00000000: bc78 a53e 002c ab3a dd36 ce3e 7458 a03d
00000010: b6cf 123e e305 663f f769 513f 404f 2a3e
00000020: 9592 eb3d 8d0e 773f
0.32318676 0.0013059378 0.40276232 0.07829371 0.14337048 0.8985273 0.81802315 0.16631794
0.11502568 0.9650658

sequential/dense_2/BiasAdd/ReadVariableOp/resource f4 [4]
00000000: c940 c93d f5da 853e e63f 123f 94a3 5ebf
0.0982681 0.26143613 0.5712875 -0.8696835

sequential/dense/MatMul f4 [24, 32]
00000000: 94a0 d5bd a40e 7f3e 5b76 983f 06bb 883f
00000010: 27c8 8b3f 15c1 8e3f 9551 b33f 30f7 593f
00000020: 5e4f 973f e6ea f43e 7102 203f 5d5e 583e
00000030: 34ed 3b3f 18f1 743e afcc 013f ed17 e53d
00000040: c532 e83d 119f cabd 290b 2b3e 0bf6 25be
00000050: 8ee8 ba3d 25b3 8dbd a664 473e 9730 23be
00000060: 3918 a23e af8f 82be 3449 ad3e 5502 aebe
00000070: cd3c 8a3e 1a69 64bf 222e ac3e 23cd 84bf
00000080: f1a2 04be 6092 ff3d 0053 bcbf e499 8f3f
00000090: 5493 b3bf 1825 243f 0f4a 9abf 71ba 1b3e
000000a0: 1097 7ebf 82bf b13c 12ce 8abf 207a d9be
000000b0: 231c d7be ce44 e1be b992 a8be 250b 26bf
000000c0: 2f2c 9b3d 1335 2dbf bff6 873e c296 22bf
000000d0: cf56 d33e 14e7 01bf e280 143f 94c5 f6be
000000e0: ddc2 063f 5783 79bc 6e92 aa3e 9507 653e
000000f0: 4a59 9d3d dfa8 de3e c2c7 0abe e812 ff3e
00000100: 0adc 87be 68e0 a43e bbad c3be cb7c b7bf
00000110: 4b1f 7f3d 1884 a6bf 8f71 0c3f 957c 81bf
00000120: 2880 b73e 31e0 48bf 2128 c83e fb8e 27bf
00000130: fd73 e83e 46ed 95be c48c 3e3f df0e 7c3c
00000140: 860b 603f 8a75 6e3e 482c 603f 7dca 3d3e
00000150: d16b 483f ec60 843e f075 ef3e dc33 0c3f
00000160: b3b7 533e e60a 123f aa56 9abe d5e9 403f
00000170: 8e1c afbe c0bb 323f e5fe 44bf 89b3 513f
00000180: 78a1 603e f8c6 793d 5529 c93f 9d09 153f
00000190: 6e84 a93f a706 4d3e 9e98 c23f ee65 3dbe
000001a0: 8455 a53f 6449 85be 2d3e e03e dd4a 04bf
000001b0: b79b 733e 468c 0dbf 1153 8abe 7fc4 e0be
000001c0: 7f45 a6be b642 bdbe b563 ffbe 3a83 2cbe
000001d0: 1f25 59bf ddc9 dfbd e7bf 22bf b80d abbd
000001e0: a8fd 02bf 7718 053e 158a 09be 0355 633e
000001f0: 979a aa3d 1d09 333e de8e 2a3f e719 633d
00000200: d4e6 393e 5006 4b3e b8e7 113f f692 613e
00000210: 81e9 4c3f 1161 dfbd 274e 163f a6d6 97be
00000220: a3f7 793f 07f7 51be 1e54 893f 2b9a 53bf
00000230: f4ca 5f3f 3057 2dbf 5dac 9c3e d52b 4abf
00000240: 9e40 f03e 78af 2fbf f881 b43e ef78 cdbe
00000250: 473a 35be 2e9d 2bbe 56d1 a2be 7a0e d1bd
00000260: 25ae 90bf 8740 c7bb d333 9fbf bd9c 92bd
00000270: e22e d3bf 75e3 3dbe 20f2 ffbf 45a5 a2be
00000280: e805 413d c035 693c 34bc bd3e 5533 d0bf
00000290: 5579 8cbd 4329 93bf 3531 b43e 78b3 89bf
000002a0: 04ef 893e e7c5 61bf f146 1e3f 79eb 52bf
000002b0: 2765 0c3f 7312 ddbe f06b 053f 7480 17be
000002c0: 8d16 3d3f e7dd 8ebe 6358 5a3f 730a 2a3e
000002d0: 82bb 943f aa13 f43e 2ffd 823f 5128 ab3e
000002e0: 5a17 083f 9cbd f63e 8050 433f a901 d73e
000002f0: 109f 1f3f 1ed2 263f f71b 733f d9c1 8c3f
00000300: 843a 283e 1cf4 203e b0fd 9ebf 1133 e03e
00000310: 5ec5 c8bf f4a1 233e 85ca c0bf 19dd b13e
00000320: b114 94bf ba06 223f 6bb8 88bf 366a 323f
00000330: 9c7d 0dbf 0209 253f 5bff 713c cf57 1b3f
00000340: 5c73 3fbe 95f5 cf3e 84d3 5e3e b6f5 c53e
00000350: 7e52 da3e bc49 623e 3705 433f 8ddb 9a3e
00000360: f781 903f ff4d 563e 667c 883f 9aab 443e
00000370: ba65 6e3f cb6e 3bbd e098 943f 577f abbd
00000380: b0fa 6c3e 6419 503e 6d4f ce3f ec3a 863e
00000390: ad6a bd3f 998c 313d 7a86 7e3f b556 743e
000003a0: af4b 473e 552a b7bc d82e f13d 3be8 debd
000003b0: 94f5 90be c5ba 3fba f685 44bf 562f c1bd
000003c0: 57d6 3bbf c1e1 263e a434 22bf 6026 a73d
000003d0: d74f 64bf afc8 323e 249f cfbd 852a 173e
000003e0: 47f4 3e3e 00d9 2b3e af88 5c3f 10f4 753e
000003f0: 515f e63f 081d 483d 6a51 1e40 9866 af3c
-0.104310185 0.24907929 1.1911119 1.0682075 1.0920457 1.1152674 1.4009272 0.85142803
1.1821096 0.47835463 0.62503725 0.21129747 0.7340882 0.23920095 0.5070295 0.11186204
0.113378085 -0.09893621 0.16703476 -0.16207139 0.091263875 -0.06918935 0.19471988 -0.15936504
0.31659105 -0.25500247 0.33844912 -0.33986154 0.26999512 -0.8922287 0.33628947 -1.0375103
-0.12952782 0.12479091 -1.471283 1.1218839 -1.4029336 0.641191 -1.2053851 0.1520784
-0.99449253 0.021697763 -1.0844138 -0.42475986 -0.42013654 -0.43997806 -0.3292444 -0.64860755
0.07576787 -0.6765911 0.2655544 -0.6351129 0.41277167 -0.5074322 0.5800916 -0.48197615
0.5264109 -0.015229068 0.33314842 0.22366174 0.07683046 0.43488213 -0.13552764 0.49819112
-0.26535064 0.32202458 -0.38218483 -1.4334959 0.062285703 -1.3009062 0.54860777 -1.0116144
0.35839963 -0.7846709 0.39093116 -0.65452546 0.45400992 -0.29282588 0.7443354 0.015384405
0.87517583 0.23287025 0.8756757 0.18534274 0.78289515 0.25855196 0.46769667 0.5476663
0.20675544 0.5704788 -0.30144244 0.753568 -0.34201473 0.69817734 -0.7695144 0.81914574
0.21936595 0.060980767 1.5715739 0.58217794 1.3243539 0.20022069 1.5202825 -0.18495914
1.2916722 -0.26032555 0.43797436 -0.5167673 0.23789869 -0.55292165 -0.270165 -0.43899915
-0.32474896 -0.3696496 -0.49880758 -0.16846934 -0.8482227 -0.10927174 -0.6357407 -0.08352226
-0.511683 0.12997614 -0.1343158 0.22200398 0.08330267 0.17483945 0.6662425 0.055444624
0.1815446 0.19826627 0.569942 0.22028717 0.800438 -0.10907186 0.58713 -0.2965595
0.9764349 -0.2050439 1.0728796 -0.82657117 0.87419057 -0.6771116 0.30600253 -0.7897313
0.469243 -0.6862712 0.35255408 -0.40131328 -0.17698012 -0.16759178 -0.31800336 -0.10207839
-1.1303145 -0.0060806903 -1.243769 -0.07158802 -1.6498682 -0.18543799 -1.9995766 -0.31766716
0.047124773 0.014234006 0.3705765 -1.6265665 -0.0685908 -1.1496967 0.35193792 -1.0757895
0.26940167 -0.881926 0.61827 -0.8239055 0.54841846 -0.43178138 0.52117825 -0.14795095
0.73862535 -0.27903673 0.8529112 0.16605549 1.1619723 0.47671252 1.0233516 0.33429196
0.5316063 0.48191535 0.7629471 0.41993454 0.62352085 0.65164363 0.94964546 1.0996658
0.16428572 0.1571812 -1.2421169 0.4378896 -1.5685232 0.15979749 -1.5061804 0.34738997
-1.1568815 0.63291514 -1.068128 0.69693315 -0.5526979 0.6446687 0.014770354 0.6068086
-0.1869635 0.40617052 0.21760374 0.38664025 0.42641062 0.2209844 0.7617983 0.3024563
1.1289662 0.2092819 1.0662963 0.19206086 0.9312397 -0.045759957 1.1609154 -0.083738975
0.23142505 0.20322186 1.6117989 0.2621683 1.479818 0.043346975 0.99423945 0.23861201
0.19462465 -0.022359053 0.11776513 -0.10884138 -0.2831236 -0.00073139026 -0.7676691 -0.09432857
-0.7337393 0.16297056 -0.63361573 0.08161616 -0.89184326 0.17459367 -0.101377755 0.14762314
0.18647872 0.16781998 0.8614606 0.24018884 1.7997838 0.04885581 2.4737191 0.021411225

sequential/dense_1/MatMul f4 [10, 24]
00000000: 93b2 96be d4fb 463e 0e1b b13e cd1f a7bf
00000010: a021 36be acdd 3c3e cd0f b93e e3af e03e
00000020: df49 35bf 402e 4cbe 8b0c c9bf 5226 09c0
00000030: 8d76 b9ba 9e0e 623e cf0c 8abf 454a f1bf
00000040: 0fa1 7e3d a48a 06bf 9bea 503e f3c5 013e
00000050: a082 523e ce85 4fbf 5d44 d93e b2c5 4abf
00000060: bec8 403f d9c6 2b3f 22e9 a53f 6cc2 1fbe
00000070: 6686 e6bd 4fdb 093f eefd a83d 5f79 ea3e
00000080: e0b1 b3bd e5f3 d43d 020d 4f3f f440 663f
00000090: dcf5 043f 9de3 a13f a18b 85be 58f0 b93e
000000a0: 4447 c1bd ffd4 2a3e 1e32 3e3f 09c7 db3f
000000b0: 9a9a 2b3f 711b a6bd 6c55 073e 2a02 d63d
000000c0: 36aa 393f 617e 31bf 13bf 32bf c5c6 883f
000000d0: 914a 293f 0cd3 aabd 7c53 ecbe dcf6 cb3e
000000e0: 1f7f 723f cbd9 853f f732 55bd f2a4 c2be
000000f0: fca6 b33d 343b aa3e 83a1 8b3f 30ab 08bf
00000100: 6cce f7bf ed47 b33f b699 a53d 7da9 7cbe
00000110: da83 313c 0449 263f 5aa8 4bbf 0e33 143f
00000120: 40aa 1dbe 065d 4fbd 2b90 07be ea6d 9b3e
00000130: 66e3 ca3e fdae 66bf b071 20bf e8e8 dfbf
00000140: 281e 2a3f e49c 32bf 4568 713e 4af1 81be
00000150: dc02 a23e 7853 bb3d d887 1e3e 816c c83e
00000160: f8ef 0dbf f1f7 df3e 7481 6f3e 827b 23bf
00000170: 4599 873e 431f 193f bbf0 283f 4106 f23e
00000180: 615d 083f b274 2cbf cf2e f73e 3035 f9bd
00000190: 0965 cfbf a744 ff3e 4273 803f 24b0 5c3f
000001a0: f5c5 eb3e a13c 533f ee54 e9be 8b31 843e
000001b0: d0bc 99bf cfb4 593e 4d23 c13e b906 263e
000001c0: 06b1 6a3f 9119 7d3f 1528 77bf ee05 ea3e
000001d0: 5a2e aebf 4320 febf 081e 8d3e 3bdb 3ec0
000001e0: fd20 3ac0 3b3f 64c0 e4ab d5bf 0e7f 32c0
000001f0: ab81 85be ec4d 45c0 6e21 6dbf b56d cdbc
00000200: 23fc f4bf bb89 98bf f708 1bc0 eab0 16c0
00000210: d933 50c0 2947 47c0 0d30 1dc0 9cc6 24c0
00000220: f10b 93bf cfca 08c0 5d4d 40c0 55df a7be
00000230: 1a6f 29c0 af2b d0bf b345 94bd 0e76 77bf
00000240: 1604 37bf 99c5 adbc f3bc 693f 735f e2bf
00000250: b669 783e 1a4c 273f 2b46 64be 75c6 a33d
00000260: a1f2 18bf 7ea0 c2be 3373 253f 2116 ea3e
00000270: 4e22 003f 72d8 403d 0742 90bf 208e eb3e
00000280: a29e 9dbe cd94 e5be e8a5 5e3e 6b44 d33e
00000290: 2728 273e ce5a 15bf a3d5 a0be 07db d7be
000002a0: 905a a83f d5c5 ab3e 40e2 323f e355 bb3f
000002b0: da55 453f 2dd8 1d3f 6018 963f d282 d03e
000002c0: 3b13 a33f 8e03 893f dac3 473f 65a4 cb3e
000002d0: 26a1 c03e 1ab8 4c3f 7760 913f 3002 263f
000002e0: 69b4 a53f a0ef 953f 37ce 873f c8dd 273f
000002f0: e922 843f 8431 9c3f b098 2d3f 9c79 a93f
00000300: c156 3d3f ec5e 6d3f 75f0 5e3f d760 b73f
00000310: 1e4f 0a3f f679 593f b486 a33f 48b5 b03e
00000320: 304c 9d3f a15f 993f ad29 3a3f ee20 223f
00000330: 2d05 823f e63a 783f d407 c23f dcb9 2b3f
00000340: 4afb f03f 0b0e a83f 02bc 183f e8f7 353f
00000350: 94e6 3a3f 13ad ba3f 0d1c 7f3f d3b0 c33f
00000360: d686 25c0 94bd 46bf e710 41be 377d f93d
00000370: 2ef3 f33e 0ca9 20be fbdb 2b3f 5ee1 2a3f
00000380: 0500 b9bf 0733 18c0 7f13 a4be 3d2c 84be
00000390: 17e1 b1be 3da9 11bf 1951 023f 86a0 a3be
000003a0: 7aff 17c0 727c aebe 3761 b3be e86a f2be
000003b0: 3b22 bdbe 4f17 0ec0 58a6 003f cf5d f3bf
-0.29433116 0.19432002 0.34590954 -1.305658 -0.17786264 0.18443936 0.36144868 0.4388419
-0.70815843 -0.19939518 -1.5706953 -2.142964 -0.0014149711 0.22075889 -1.0785159 -1.885079
0.062165316 -0.525553 0.20401995 0.12673168 0.20557642 -0.81063545 0.4243497 -0.7920791
0.7530631 0.6710029 1.2961771 -0.1560151 -0.11256103 0.53850263 0.08251558 0.45795724
-0.08774161 0.10398082 0.80879223 0.8994286 0.5193765 1.2647587 -0.2608309 0.3631618
-0.09437421 0.16682814 0.7429522 1.7170116 0.6703278 -0.08110703 0.1321618 0.104496315
0.72525346 -0.69333464 -0.69822806 1.068566 0.66129404 -0.08341035 -0.46157444 0.39836776
0.9472522 1.045709 -0.052050557 -0.38016468 0.08772084 0.33248293 1.0908664 -0.5338621
-1.935987 1.4006325 0.08085959 -0.2467403 0.0108346585 0.64955163 -0.7955376 0.57890403
-0.15396976 -0.050625823 -0.1323859 0.30357295 0.39626616 -0.9011076 -0.62673473 -1.7492952
0.66452265 -0.69770646 0.23574932 -0.253794 0.31642807 0.0914678 0.15481508 0.39145282
-0.5544429 0.43743852 0.23389226 -0.6386033 0.26484123 0.59813327 0.65992326 0.47270396
0.53267485 -0.6736556 0.482779 -0.12168348 -1.6202708 0.49857065 1.0035174 0.8620627
0.46049467 0.8251439 -0.4557261 0.25819048 -1.2010746 0.21260379 0.37722245 0.16213502
0.91676366 0.98867136 -0.96545535 0.4570765 -1.3607895 -1.9853595 0.27561975 -2.9821308
-2.9082634 -3.5663593 -1.6693082 -2.7890048 -0.2607549 -3.082881 -0.92629135 -0.025076726
-1.9139446 -1.1917032 -2.4224222 -2.354548 -3.2531645 -3.1137183 -2.4560578 -2.5746222
-1.1488019 -2.1373785 -3.0047219 -0.32787576 -2.647406 -1.6263331 -0.072398566 -0.9666451
-0.7149061 -0.021212386 0.9130394 -1.7685379 0.24259076 0.65350497 -0.22292392 0.07996837
-0.5974522 -0.3801307 0.64628905 0.45720008 0.50052345 0.04708142 -1.127015 0.4600687
-0.3078509 -0.44840088 0.21742976 0.41263136 0.1632391 -0.5834168 -0.31412992 -0.42159292
1.3152637 0.3354937 0.6987648 1.4635586 0.77084124 0.61657983 1.1726189 0.40724808
1.2740244 1.070421 0.7803322 0.3977386 0.37622947 0.79968417 1.1357564 0.6484709
1.2945682 1.1713753 1.0609807 0.65572786 1.0323154 1.2202611 0.6781111 1.3240237
0.739605 0.92722964 0.8708566 1.4326428 0.54026973 0.8495172 1.2775483 0.34513307
1.2288876 1.1982309 0.7271984 0.63331497 1.015783 0.9696487 1.5158639 0.67080474
1.8826687 1.3129286 0.5966188 0.710814 0.73008084 1.4584068 0.9965218 1.5288337
-2.5863547 -0.77633023 -0.18854104 0.12182086 0.4764647 -0.15689486 0.6713254 0.66750133
-1.4453131 -2.3781145 -0.32046124 -0.25815 -0.34742042 -0.5689886 0.50904995 -0.31958407
-2.374968 -0.3407932 -0.35035107 -0.47347188 -0.36940178 -2.2201726 0.5025382 -1.9013003

sequential/dense_2/MatMul f4 [4, 10]
00000000: 52aa 4c3f 8f96 6bc0 1a8c 9dbf e6d5 fcbf
00000010: 3a1d 4cc0 2072 2940 fd3a c8be b2bb 60c0
00000020: 0084 52c0 45f0 ea3f b20d 153f 2770 9c3f
00000030: f978 d4bf 5b88 42bf 46d8 1ec0 e879 7abf
00000040: 699e d13f 97ed 27be 8772 ec3e 2f3d 05c0
00000050: 41c6 a9bf d8a0 30bf 03b7 423f ac5f 42bf
00000060: 6703 d1bd bfa3 0fc0 f3f4 bdbf 4807 853e
00000070: ccdf 713f cf0e 273e 0ac1 44bf f362 6e3f
00000080: 54ea 9c3e 68a4 a43f 72ef f23e e0ad 0ebf
00000090: d103 c5bd 1a89 ebbd 0fe6 1b3f ab51 e3be
0.7994739 -3.6810644 -1.2308381 -1.9752777 -3.1892838 2.6475906 -0.39107504 -3.511456
-3.2893066 1.8354574 0.5822402 1.2221726 -1.6599418 -0.7598931 -2.4819503 -0.97842264
1.6376468 -0.16399227 0.46181127 -2.0818594 -1.3263627 -0.6899543 0.76060504 -0.75927234
-0.10205727 -2.2443693 -1.4840378 0.25982118 0.9448211 0.16314243 -0.76857054 0.93119735
0.30647528 1.2862673 0.47448307 -0.5573406 -0.096198685 -0.115007594 0.60897917 -0.44398245
